…
F:\study\project\face\face_train.py:121: UserWarning: Update your `Conv2D` call to the Keras 2 API: `Conv2D(64, (3, 3), padding="same")`
  self.model.add(Convolution2D(64, 3, 3, border_mode='same'))  # 9  2维卷积层
F:\study\project\face\face_train.py:124: UserWarning: Update your `MaxPooling2D` call to the Keras 2 API: `MaxPooling2D(pool_size=(2, 2), data_format="channels_first")`
  self.model.add(MaxPooling2D(pool_size=(2, 2), dim_ordering="th"))  # 11 池化层
_________________________________________________________________
Layer (type)                 Output Shape              Param #
=================================================================
conv2d_1 (Conv2D)            (None, 64, 64, 32)        896
_________________________________________________________________
activation_1 (Activation)    (None, 64, 64, 32)        0
_________________________________________________________________
conv2d_2 (Conv2D)            (None, 62, 62, 32)        9248
_________________________________________________________________
activation_2 (Activation)    (None, 62, 62, 32)        0
_________________________________________________________________
max_pooling2d_1 (MaxPooling2 (None, 62, 31, 16)        0
_________________________________________________________________
dropout_1 (Dropout)          (None, 62, 31, 16)        0
_________________________________________________________________
conv2d_3 (Conv2D)            (None, 62, 31, 64)        9280
_________________________________________________________________
activation_3 (Activation)    (None, 62, 31, 64)        0
_________________________________________________________________
conv2d_4 (Conv2D)            (None, 62, 31, 64)        36928
_________________________________________________________________
activation_4 (Activation)    (None, 62, 31, 64)        0
_________________________________________________________________
max_pooling2d_2 (MaxPooling2 (None, 62, 15, 32)        0
_________________________________________________________________
dropout_2 (Dropout)          (None, 62, 15, 32)        0
_________________________________________________________________
flatten_1 (Flatten)          (None, 29760)             0
_________________________________________________________________
dense_1 (Dense)              (None, 512)               15237632
_________________________________________________________________
activation_5 (Activation)    (None, 512)               0
_________________________________________________________________
dropout_3 (Dropout)          (None, 512)               0
_________________________________________________________________
dense_2 (Dense)              (None, 5)                 2565
_________________________________________________________________
activation_6 (Activation)    (None, 5)                 0
=================================================================
Total params: 15,296,549
Trainable params: 15,296,549
Non-trainable params: 0
_________________________________________________________________
_________________________________________________________________
Layer (type)                 Output Shape              Param #
=================================================================
conv2d_5 (Conv2D)            (None, 64, 64, 32)        896
_________________________________________________________________
activation_7 (Activation)    (None, 64, 64, 32)        0
_________________________________________________________________
conv2d_6 (Conv2D)            (None, 62, 62, 32)        9248
_________________________________________________________________
activation_8 (Activation)    (None, 62, 62, 32)        0
_________________________________________________________________
max_pooling2d_3 (MaxPooling2 (None, 62, 31, 16)        0
_________________________________________________________________
dropout_4 (Dropout)          (None, 62, 31, 16)        0
_________________________________________________________________
conv2d_7 (Conv2D)            (None, 62, 31, 64)        9280
_________________________________________________________________
activation_9 (Activation)    (None, 62, 31, 64)        0
_________________________________________________________________
conv2d_8 (Conv2D)            (None, 62, 31, 64)        36928
_________________________________________________________________
activation_10 (Activation)   (None, 62, 31, 64)        0
_________________________________________________________________
max_pooling2d_4 (MaxPooling2 (None, 62, 15, 32)        0
_________________________________________________________________
dropout_5 (Dropout)          (None, 62, 15, 32)        0
_________________________________________________________________
flatten_2 (Flatten)          (None, 29760)             0
_________________________________________________________________
dense_3 (Dense)              (None, 512)               15237632
_________________________________________________________________
activation_11 (Activation)   (None, 512)               0
_________________________________________________________________
dropout_6 (Dropout)          (None, 512)               0
_________________________________________________________________
dense_4 (Dense)              (None, 5)                 2565
_________________________________________________________________
activation_12 (Activation)   (None, 5)                 0
=================================================================
Total params: 15,296,549
Trainable params: 15,296,549
Non-trainable params: 0
_________________________________________________________________
(2877, 64, 64, 3)
F:\study\project\face\face_train.py:181: UserWarning: The semantics of the Keras 2 argument `steps_per_epoch` is not the same as the Keras 1 argument `samples_per_epoch`. `steps_per_epoch` is the number of batches to draw from the generator at each epoch. Basically steps_per_epoch = samples_per_epoch/batch_size. Similarly `nb_val_samples`->`validation_steps` and `val_samples`->`steps` arguments have changed. Update your method calls accordingly.
…
143/143 [==============================] - 65s - loss: 0.4107 - acc: 0.8401 - val_loss: 0.2894 - val_acc: 0.8856
Epoch 9/10
143/143 [==============================] - 110s - loss: 0.3798 - acc: 0.8530 - val_loss: 0.2654 - val_acc: 0.8938
Epoch 10/10
143/143 [==============================] - 145s - loss: 0.3314 - acc: 0.8824 - val_loss: 0.2284 - val_acc: 0.9116
(8220, 64, 64, 3)
[0 0 0 ... 2 2 2]
1
5754 train samples
2466 valid samples
4110 test samples
_________________________________________________________________
Layer (type)                 Output Shape              Param #
=================================================================
conv2d_9 (Conv2D)            (None, 64, 64, 32)        896
_________________________________________________________________
activation_13 (Activation)   (None, 64, 64, 32)        0
_________________________________________________________________
conv2d_10 (Conv2D)           (None, 62, 62, 32)        9248
_________________________________________________________________
activation_14 (Activation)   (None, 62, 62, 32)        0
_________________________________________________________________
max_pooling2d_5 (MaxPooling2 (None, 62, 31, 16)        0
_________________________________________________________________
dropout_7 (Dropout)          (None, 62, 31, 16)        0
_________________________________________________________________
conv2d_11 (Conv2D)           (None, 62, 31, 64)        9280
_________________________________________________________________
activation_15 (Activation)   (None, 62, 31, 64)        0
_________________________________________________________________
conv2d_12 (Conv2D)           (None, 62, 31, 64)        36928
_________________________________________________________________
activation_16 (Activation)   (None, 62, 31, 64)        0
_________________________________________________________________
max_pooling2d_6 (MaxPooling2 (None, 62, 15, 32)        0
_________________________________________________________________
dropout_8 (Dropout)          (None, 62, 15, 32)        0
_________________________________________________________________
flatten_3 (Flatten)          (None, 29760)             0
_________________________________________________________________
dense_5 (Dense)              (None, 512)               15237632
_________________________________________________________________
activation_17 (Activation)   (None, 512)               0
_________________________________________________________________
dropout_9 (Dropout)          (None, 512)               0
_________________________________________________________________
dense_6 (Dense)              (None, 5)                 2565
_________________________________________________________________
activation_18 (Activation)   (None, 5)                 0
=================================================================
Total params: 15,296,549
Trainable params: 15,296,549
Non-trainable params: 0
_________________________________________________________________
(5754, 64, 64, 3)
F:\study\project\face\face_train.py:181: UserWarning: Update your `fit_generator` call to the Keras 2 API: `fit_generator(<keras.pre..., validation_data=(array([[[..., steps_per_epoch=287, epochs=10)`
…
